data.pth (torch, 5169 bytes, 6 tensors)

l1.weight f4 [8, 37]
00000000: 00c5 933c 2a65 a6bd b893 bcbc f02c c6bc
00000010: 58b4 d4bc f943 e2bc 7c09 17be 1aa1 f1bd
00000020: 4afa 58bd 2e0e cf3d 80f1 e4bd 9ec8 4fbd
00000030: 69d4 a8bc 7baa bdbd 8044 de3a 1467 9b3d
00000040: 6abd 82bd 7271 f73d 78de 493d 00c0 9aba
00000050: 9a80 0bbe 127b a6bd 8abc 8f3d 330e bfbd
00000060: 69ab 70bd d8b4 c63d ceda df3d 9f0a 21be
00000070: 53d7 273e d0fc 1ebe dca5 54bb c882 893c
00000080: 14e6 473d b028 1b3c b952 ea3d 05b1 083e
00000090: d445 03bd e57d f0bd 7772 cc3e ed83 95be
000000a0: c933 323e f646 ffbe 7d75 ce3d 4939 3a3e
000000b0: 6cf8 5b3f e550 de3e 5dfe e1be 8ace 73be
000000c0: cc9d d53d 9732 c03d 48a6 20be 0414 323f
000000d0: 880c d6be c0f5 11bf bfcb 4e3b 3915 f53e
000000e0: e679 02be a71f 8cbe c972 23be c25e 983e
000000f0: 6082 033f 7300 a1be 2dd5 f4be 63e2 0c3c
00000100: 1d5c 203f bac8 8e3e 4048 4abf 3eee e8bd
00000110: be54 96be d195 0e3e 54d7 b33e 670f 793c
00000120: cb86 cc3d efcf 9e3e d087 1bbe f99d bc3e
00000130: 1cc5 073f 3a82 1c3f a652 81be 8ce5 04be
00000140: 2a4b 053f 96fe b93e 50d4 773e e91a f03e
00000150: da0b 403c 47ab 12bf 160b 99be 41c0 2d3f
00000160: 5bcf f83e e828 123f 1153 253f f615 e4be
00000170: b2a6 3e3e ee14 113e 1a14 adbe 4d9e 34be
00000180: c7c1 4b3f 2cee 903e cf7a c6be 838d 2abe
00000190: a7c2 0ebe a97e 343e 7a48 083f e110 17bf
000001a0: e37d 5bbe 8d3f 163f a086 9dbd 2258 02be
000001b0: 01c3 f63d 7832 9a3e 0d8f 94b8 c94b 6dbe
000001c0: 9955 473b 4f7a 153f 5ecc 3d3e addc 8c3d
000001d0: a0c5 86be 188a 863d cd01 32be 8105 cbbd
000001e0: 1f82 483f 2b3f be3e 600b 75bd 61dd 0dbe
000001f0: 22b5 013f e0d0 debe e0b9 4c3f 779d 223f
00000200: 3f77 c5bd c854 11bf 5462 1b3f ebae 58bc
00000210: 0343 e93e 72f8 823e 4ab1 15be 62fa 263f
00000220: 69bc 143f 96dc e7be c896 cdbe dd0b c8bd
00000230: 32ab ba3d 30ea 203e a818 eb3e 5eb8 153e
00000240: b9ff aebe fa23 6a3d 9956 a63e f821 a7bc
00000250: 39aa 293e c03c 89bd 41ed 5dbe b702 36bf
00000260: f8eb 5e3e daaa 8dbe 943a adbd 337a 0a3f
00000270: 4087 933e e090 123e 633b 153f 6480 8b3f
00000280: c5a6 d93e 44fc dbbe d9fe ec3e 217f 03bf
00000290: f9bb 03bf d5ab fa3e 9e6a ef3e 04e1 9d3e
000002a0: 4ef7 db3d b3ce 203f 6467 dabe 5069 da3e
000002b0: 9aac b2be 43b1 b1be 7784 4d3e 9dea 2c3e
000002c0: 290c b7bd 716f b73e 088a fc3e 1390 c3be
000002d0: 2a40 393f bc7b 593e 8ef3 10bd acbb 0d3f
000002e0: a67c aebd 089f f23e d299 913e 96ad 253e
000002f0: b11d de3e ae7f 053f 99ff 253f f266 a53d
00000300: 5566 e8be af10 4ebd 5d1c a03b ceef 96be
00000310: 4a40 cebe 19f9 ac3e f4dc 533d f97a ebbe
00000320: 5879 0c3e 719f 043e 1484 b5be 2e52 16bd
00000330: 49bd 0cbf 96e1 083f 5d26 7ebe 4fcc fa3e
00000340: 81e4 94be 72ce 903f f11f 613f fd02 123f
00000350: bd74 90be 0bc9 bd3e 3bff 7e3f 761a 023f
00000360: 5fa2 433e f8e8 9bbe 4b8c 28be 4af0 513f
00000370: 24aa ecbd df44 9f3e d062 55bc f801 48be
00000380: 43dd 52be 288f 7cbd d791 02be ca1d f5be
00000390: 12ae 853c 43b0 583e 4ca8 8bbd 6451 3f3f
000003a0: 6411 0d3f 0d07 ca3e 3aca cd3d a012 1ebe
000003b0: f647 be3d 9a04 6b3f 4c3d 483f 577b be3d
000003c0: 8a84 c9be d3a1 2e3f 6793 7cbe 86b1 323f
000003d0: ec76 08be e0ff 713e be3f 0cbd 6371 aebe
000003e0: 9538 f2be d9d8 003e 269b 2dbe 0c1d c0be
000003f0: 32f0 fb3e 54cf 443d 20f6 b73e 227f bdbe
0.018038273 -0.08124764 -0.023019657 -0.02419135 -0.0259649 -0.027620303 -0.14749712 -0.11798306
-0.05297307 0.101101264 -0.11178875 -0.050728433 -0.020609098 -0.09261032 0.001695767 0.0758802
-0.06383784 0.12082185 0.04928443 -0.0011806488 -0.13623276 -0.081289425 0.07018383 -0.0932888
-0.05875722 0.09702462 0.109304056 -0.15726708 0.16390733 -0.15526128 -0.0032447493 0.016785994
0.048803404 0.00947015 0.11441559 0.13348778 -0.032049015 -0.117427625 0.3993108 -0.29202214
0.17402567 -0.49858826 0.10081003 0.18185915 0.85925937 0.43421093 -0.44139376 -0.23809257
0.10430488 0.09384649 -0.15688431 0.6956179 -0.41806436 -0.5701561 0.0031554548 0.47867754
-0.12741813 -0.273679 -0.15961756 0.29759794 0.5137081 -0.31445655 -0.4781889 0.008598897
0.62640554 0.27887517 -0.79016495 -0.11373566 -0.29361528 0.13924338 0.3512522 0.015201426
0.09986647 0.31018016 -0.15188527 0.36839274 0.5303514 0.6113621 -0.25258368 -0.1297819
0.52067816 0.36327046 0.24202085 0.4689553 0.011721576 -0.572926 -0.2989127 0.6787148
0.485957 0.5709367 0.64579874 -0.44548005 0.18618277 0.1416814 -0.338044 -0.17638512
0.79592556 0.2830671 -0.3876557 -0.16655545 -0.13941441 0.17626442 0.5323559 -0.5901013
-0.2143474 0.5869072 -0.07691693 -0.12728932 0.12048913 0.3011663 -7.083835e-05 -0.23173441
0.003041601 0.58389753 0.18534991 0.06878028 -0.2632265 0.06569308 -0.173835 -0.09913159
0.7832355 0.37157568 -0.0598253 -0.1385398 0.5066701 -0.43518734 0.7997112 0.6352152
-0.09641885 -0.5676999 0.6069691 -0.013225297 0.45558938 0.25580174 -0.14618412 0.65225804
0.5809999 -0.4528548 -0.401541 -0.09767888 0.09114684 0.15714335 0.4591725 0.14621112
-0.34179476 0.057163216 0.32487944 -0.02040194 0.16568841 -0.0670104 -0.21672536 -0.7109789
0.21769702 -0.27669412 -0.084584385 0.5409271 0.28814125 0.14313078 0.5829374 1.0898557
0.42510048 -0.429659 0.46288183 -0.5136586 -0.514587 0.48959222 0.4676103 0.30835736
0.10740529 0.628154 -0.42657006 0.42658472 -0.3489731 -0.34705552 0.20070063 0.16886373
-0.08937866 0.3582721 0.4932406 -0.38195857 0.7236353 0.21238607 -0.03538852 0.5536449
-0.085198686 0.47386956 0.28437668 0.16179499 0.43382028 0.5214795 0.64843136 0.08076276
-0.45390573 -0.05030888 0.0048861937 -0.2947983 -0.40283424 0.33783796 0.05172439 -0.45992258
0.13718164 0.12951447 -0.3545233 -0.036699466 -0.54976326 0.53469217 -0.24819322 0.48984
-0.29080585 1.1313002 0.87939364 0.5703581 -0.28214064 0.37067446 0.996082 0.50821626
0.19104908 -0.3045118 -0.16459768 0.82007277 -0.11555889 0.31107232 -0.013024047 -0.19532001
-0.20592217 -0.061659962 -0.12750946 -0.4787429 0.016318355 0.21160989 -0.068192095 0.7473357
0.5510466 0.39458504 0.10048337 -0.15436792 0.09291069 0.91803896 0.7821853 0.09300869
-0.39358932 0.68215674 -0.24665605 0.6980213 -0.13326615 0.23632765 -0.034240477 -0.34070882
-0.47308794 0.12582721 -0.16953716 -0.3752216 0.49206692 0.048049286 0.35929966 -0.37011057

l1.bias f4 [8]
00000000: 2eab 28be 8b50 4a3f b916 173f 96b1 523f
00000010: c8bb 033f ba42 733f 6f80 bf3e 3937 773f
-0.1647155 0.7902915 0.5901905 0.82302225 0.51458406 0.9502369 0.37402675 0.9656864

l2.weight f4 [8, 8]
00000000: 4a38 93bd 4c85 833f 4f60 8b3f c730 2c3f
00000010: de0c 3bbf ed38 793e 4e89 1bbb 8721 d33f
00000020: 73da 83be 2977 4cbf 8ca7 3fbf b2af 813f
00000030: 513b babe e866 b53f 5d34 08bf 8d8d 173f
00000040: ab7f 843d c892 1f3f def4 85bd a626 783f
00000050: 60ef 8e3f 405c 46bf eff0 923f 61da 9b3f
00000060: 5085 6bbd 29d4 303e f2c7 03be ebc5 97be
00000070: ee2c a9be 524d 4f3c 62c7 a4be a990 70bd
00000080: e291 2a3e 5c87 9f3e d0b9 bc3e 2a4a 92be
00000090: f129 23bc add0 6d3f ffcc babf 59ea 8dbf
000000a0: 1175 05be fefd 663f eef8 1ebf 0189 0fbf
000000b0: bd73 b83e 6d03 513d a7b9 2bbf 8976 b83f
000000c0: 85dc 0cbe d9fd aa3f 48bc ea3e b518 53bf
000000d0: 8a77 f03e 1425 053f 8bc7 dcbe 6846 1cbf
000000e0: 7349 b2bd 79a9 71be 6f59 a03f 4cb6 723f
000000f0: 233d 9abf 26fb 8f3b 4ed6 3d3f 5ff7 50bc
-0.07188471 1.0275054 1.0888766 0.6726193 -0.7306651 0.24338122 -0.0023732963 1.6494607
-0.257526 -0.79869324 -0.7486503 1.0131743 -0.3637338 1.417203 -0.532049 0.59200364
0.06469663 0.62333345 -0.06540845 0.9693397 1.1166801 -0.7748451 1.1479777 1.2176019
-0.057500184 0.17268433 -0.12869242 -0.29643187 -0.3304209 0.012652712 -0.32183367 -0.05873171
0.16657212 0.31157959 0.36860514 -0.28572208 -0.00995873 0.9289654 -1.459381 -1.1087142
-0.13032939 0.9023131 -0.62098587 -0.56068426 0.360258 0.051028658 -0.6708016 1.4411174
-0.13755997 1.3358718 0.45846772 -0.82459575 0.469662 0.520097 -0.4312099 -0.6104493
-0.087054156 -0.23599805 1.2527293 0.9480941 -1.2049907 0.004393953 0.7415513 -0.01275429

l2.bias f4 [8]
00000000: e094 71be ccbc e53e 7f57 f13e 99c8 f7bd
00000010: 0793 903e 739d 613f ffec 833f 4ede 4f3e
-0.23591948 0.44870603 0.47137067 -0.12098808 0.28237173 0.88130873 1.03067 0.20299646

l3.weight f4 [8, 8]
00000000: b516 083f 450d a4bf 3044 8abf 2cba e0bd
00000010: 92dc 243f e621 2cbf bc8e 963e 44c9 fd3e
00000020: 69a1 d5be 2cbd 80bf bf01 503f 0822 68bc
00000030: c3be 27bf 926c 81bf ade2 71bf 9515 52bf
00000040: aa85 d9bf 0969 a7bf 30ac 3f3e f1c7 09bd
00000050: fae1 8ebf a9b8 593f f3d9 583f 612c 7cbf
00000060: f1aa 2c3f 1b17 a7bf ded6 213e a2fe 81be
00000070: 7005 9abf ca01 873e 16a1 a93d 9e48 96bf
00000080: 8c61 e33d a3fb 223e 51c8 6ebd bd4f 39be
00000090: 941c a9bf 4420 febe 2ad0 6ebf b06a 813f
000000a0: 8008 80be 9036 873f 3bfc 4dbf fb51 efbd
000000b0: 7825 843e fe00 b5bf cba2 3abe ff50 113c
000000c0: 9798 9ebf 6e12 6b3e 242c 4cbf f5bf 50be
000000d0: 8882 4c3f 1ddd 383e 458f 533f f66d 52bf
000000e0: b2b3 d83d 2187 323f 8bcd d1bd 4f37 6ebe
000000f0: f090 9abf b174 e13e 0a65 8bbf e767 b2bf
0.5315965 -1.281655 -1.0802059 -0.109730095 0.64399064 -0.67239225 0.29405773 0.49567616
-0.4172471 -1.0057731 0.81252664 -0.01416827 -0.65525454 -1.0111258 -0.94486505 -0.8206418
-1.6993916 -1.3078929 0.18718028 -0.033637945 -1.1162713 0.85047394 0.84707564 -0.98505217
0.67448336 -1.3053926 0.15804622 -0.25389582 -1.2032909 0.26368552 0.08282678 -1.1740911
0.1110259 0.15916304 -0.058296505 -0.18096824 -1.3211846 -0.49633992 -0.93286383 1.0110683
-0.25006485 1.0563526 -0.80463 -0.116855584 0.25809836 -1.4140928 -0.18226163 0.008869409
-1.2390317 0.22956249 -0.79754853 -0.20385726 0.79886675 0.18053098 0.82640487 -0.8219904
0.10581149 0.6973744 -0.10244282 -0.23263286 -1.2075481 0.4403434 -1.089021 -1.3937958

l3.bias f4 [8]
00000000: d4da 013e 2905 ba3e 6e85 193c 4538 84be
00000010: 1aec 28bd c6df 823d 7754 d13e 44f1 1f3c
0.12681133 0.36332062 0.009370191 -0.2582418 -0.04124079 0.06390338 0.40884754 0.009762112
