data.pth (torch, 4849 bytes, 6 tensors)

l1.weight f4 [8, 33]
-0.28385308 0.5956372 0.7494341 0.025177758 -0.08728125 -0.2804664 0.5211401 -0.013855985
-0.13631926 -0.2995242 0.63234717 -0.052567106 0.5551242 0.83163357 -0.21916829 -0.3071312
0.3918225 0.5213632 -0.046998397 -0.048911028 -0.30837917 -0.29044515 -0.09718248 -0.382929
0.76009476 -0.194826 0.6042459 -0.19689955 -0.2513764 -0.30228978 -0.26779878 -0.0204911
0.3119241 0.48348686 0.6340727 -0.32115695 0.52446175 -0.10855063 0.5058617 0.0012350418
-0.47346514 0.5999368 0.58220565 0.6365635 0.14325625 0.47537464 0.61154646 0.48301205
0.79031926 -0.07858075 -0.38135132 -0.59111434 0.24815084 0.75377953 0.8394561 0.16907683
0.7111846 -0.62562156 0.29782203 0.670914 0.24154942 0.49609783 0.39915785 0.47461304
-0.17488004 -0.02656356 -0.011755117 -0.11915475 -0.06986902 -0.30521047 -0.12190158 0.09020273
0.26869524 0.48792472 0.3246945 0.07209381 -0.37626442 0.40590328 -0.10737636 -0.10817645
-0.09846636 -0.022573045 0.40895092 -0.09248747 0.59218687 -0.012552548 0.0063160313 -0.22088972
0.2459008 0.14159478 -0.23328136 0.41187492 -0.3967475 0.36155894 0.048548553 -0.29528984
-0.2974173 0.42666063 0.12657589 0.40462342 -0.45890322 0.5063065 -0.26861128 -0.32837522
0.2728694 0.12307701 0.40959013 0.7927717 0.46211627 -0.45082223 -0.32774884 -0.32835132
-0.32787636 0.32832968 0.10217443 0.2792156 0.4888072 0.64976096 -0.22202289 0.41920564
0.05049272 -0.2845827 0.43690145 1.2118392 0.28702673 -0.14784667 0.5836323 0.39547122
-0.13952416 -0.3362754 0.35879028 0.17687668 -0.0049577355 0.04650338 -0.11369216 -0.023493141
0.07962319 0.002125928 -0.103483014 -0.13301086 0.08052943 -0.00033451617 0.13656306 0.09653717
0.035206944 -0.11730985 0.0848303 -0.050267503 -0.16716768 0.11685392 -0.049120523 -0.1641099
0.17096171 -0.0838675 0.04745011 -0.16323163 -0.031797186 -0.09427743 -0.11050333 0.16208182
-0.06883816 -0.087066285 -0.10301359 0.026259392 0.029962808 0.45581675 0.4163929 0.6236628
0.4113194 -0.3419163 0.12283355 0.3886647 0.23432384 0.33707634 0.52334476 0.2632758
-0.3563829 0.4225868 0.40244848 -0.11256499 0.09109886 0.32036003 0.55762684 0.1463105
-0.33044985 -0.09318112 0.9061496 -0.2561086 0.05038928 0.9735195 0.5239973 0.35703975
0.12200003 0.0424221 -0.21883222 0.62423646 0.2961646 0.37812355 -0.14640987 0.14874214
0.1156393 0.1401667 -0.14785767 -0.10999041 0.0061218888 0.12830669 -0.054353617 0.066854015
0.08761674 -0.08540022 0.009965286 0.0051370114 0.008535087 -0.094130255 -0.16281047 0.05154702
-0.16117564 0.13860658 -0.019145526 -0.12712878 -0.048169434 0.15103446 0.049627006 0.060671404
-0.098135106 0.11896834 0.047190823 -0.036780223 -0.06436642 0.07004094 -0.054515086 0.0596907
-0.26466286 0.4004688 -0.29289 0.8200515 0.4750562 -0.083241135 0.2142909 0.7100195
-0.07141862 -0.5427544 0.6569065 -0.63153017 -0.62948406 0.45523036 0.43915877 0.05135961
0.27454457 0.40842873 0.48290884 0.566078 -0.39138973 0.34115732 0.5451189 0.16809897
00000000: 3155 91be ae7b 183f eada 3f3f 9641 ce3c
00000010: 83c0 b2bd 4b99 8fbe 7069 053f 3704 63bc
00000020: 4797 0bbe 3c5b 99be 81e1 213f 9b50 57bd
00000030: 9f1c 0e3f f0e5 543f a76d 60be 4d40 9dbe
00000040: f59c c83e 0f78 053f 6481 40bd ee56 48bd
00000050: e0e3 9dbe 3ab5 94be 9c07 c7bd 450f c4be
00000060: 9295 423f 7880 47be dcaf 1a3f 09a0 49be
00000070: 68b4 80be bac5 9abe ec1c 89be f4dc a7bc
00000080: 84b4 9f3e 978b f73e 9752 223f af6e a4be
00000090: 2043 063f cb4f debd 2780 013f 20e1 a13a
000000a0: 066a f2be 7595 193f 6e0b 153f d3f5 223f
000000b0: c4b1 123e 4e64 f33e 4f8e 1c3f 5b4d f73e
000000c0: 5d52 4a3f f2ee a0bd 7b40 c3be 4553 17bf
000000d0: 411b 7e3e b2f7 403f 98e6 563f 7a22 2d3e
000000e0: 3210 363f bc28 20bf 217c 983e 05c1 2b3f
000000f0: bb58 773e 8900 fe3e 6b5e cc3e 7b00 f33e
00000100: c113 33be d39b d9bc 8998 40bc 6807 f4bd
00000110: 7d17 8fbd 8c44 9cbe 89a7 f9bd 35bc b83d
00000120: 6c92 893e 45d1 f93e 5c3e a63e eba5 933d
00000130: bba5 c0be 8ed2 cf3e 23e8 dbbd 9d8b ddbd
00000140: bba8 c9bd 1beb b8bc 0462 d13e 126a bdbd
00000150: 8f99 173f 34a9 4dbc b6f6 ce3b ea30 62be
00000160: 6bcd 7b3e 39fe 103e 4fe1 6ebe 45e1 d23e
00000170: 7d22 cbbe 411e b93e d9da 463d 3b30 97be
00000180: 1547 98be 4373 da3e 1c9d 013e cd2a cf3e
00000190: 5df5 eabe 4e9d 013f 6b87 89be cc20 a8be
000001a0: 8ab5 8b3e cd0f fc3d ccb5 d13e 16f3 4a3f
000001b0: 819a ec3e 2cd2 e6be b2ce a7be aa1d a8be
000001c0: 69df a7be d41a a83e d440 d13d 59f5 8e3e
000001d0: f044 fa3e bc56 263f f859 63be 1fa2 d63e
000001e0: 74d1 4e3d d3b4 91be 8cb1 df3e 8c1d 9b3f
000001f0: 2bf5 923e 1e65 17be ed68 153f 347b ca3e
00000200: 6cdf 0ebe 4a2c acbe 5cb3 b73e 291f 353e
00000210: 8074 a2bb 547a 3e3d 6fd7 e8bd b074 c0bc
00000220: 7c11 a33d 2753 0b3b e7ee d3bd 0034 08be
00000230: 9dec a43d 0062 afb9 30d7 0b3e 48b5 c53d
00000240: 2835 103d 2640 f0bd 82bb ad3d 4ce5 4dbd
00000250: 012e 2bbe 1c51 ef3d 9a32 49bd 6d0c 28be
00000260: 9610 2f3e b9c2 abbd 0c5b 423d 3126 27be
00000270: c43d 02bd 8614 c1bd 924f e2bd c7f8 253e
00000280: 05fb 8cbd cf4f b2bd caf8 d2bd f01d d73c
00000290: 9074 f53c d060 e93e 7331 d53e 5ea8 1f3f
000002a0: 7598 d23e a70f afbe 2890 fb3d 0fff c63e
000002b0: 97f2 6f3e 4595 ac3e ecf9 053f 16cc 863e
000002c0: d277 b6be 4c5d d83e ba0d ce3e 7988 e6bd
000002d0: 0a92 ba3d 3b06 a43e a2c0 0e3f 6bd2 153e
000002e0: b930 a9be bed5 bebd 6cf9 673f ab20 83be
000002f0: fd64 4e3d 9338 793f b024 063f eacd b63e
00000300: 27db f93d ccc2 2d3d 8e15 60be f6cd 1f3f
00000310: e3a2 973e 6999 c13e 78ec 15be dc4f 183e
00000320: 4cd4 ec3d dc87 0f3e 0068 17be a742 e1bd
00000330: 209a c83b d462 033e e6a1 5ebd c2ea 883d
00000340: 6870 b33d 4fe6 aebd 7045 233c 6054 a83b
00000350: c0d6 0b3c 5dc7 c0bd cab7 26be f822 533d
00000360: 3a0b 25be e2ee 0d3e 14d7 9cbc 0c2e 02be
00000370: 504d 45bd c7a8 1a3e b045 4b3d 9482 783d
00000380: 0ffb c8bd aca5 f33d 2a4b 413d dca6 16bd
00000390: 8bd2 83bd a071 8f3d 364b 5fbd 3c7e 743d
000003a0: e481 87be 3f0a cd3e aef5 95be e5ee 513f
000003b0: 913a f33e 547a aabd 136f 5b3e d7c3 353f
000003c0: ed43 92bd f4f1 0abf 062b 283f f6ab 21bf
000003d0: de25 21bf f413 e93e 6bd9 e03e 745e 523d
000003e0: 1b91 8c3e 921d d13e d43f f73e 7dea 103f
000003f0: 3c64 c8be 2cac ae3e ea8c 0b3f 2322 2c3e

l1.bias f4 [8]
0.9425184 0.70255095 0.10716566 0.32771704 -0.14756288 0.817839 -0.18615049 0.6307758
00000000: e348 713f 61da 333f ab79 db3d 87ca a73e
00000010: b91a 17be e65d 513f 3c9e 3ebe 867a 213f

l2.weight f4 [8, 8]
0.86973596 -0.026947664 -0.23454939 0.93134034 -0.08064023 0.84382665 -0.34229955 -0.6724013
-0.07959986 0.16236672 -0.29710397 -0.3695657 0.27323076 -0.064326994 -0.025632739 -0.018843217
1.0942597 -0.71771175 0.6089785 0.13740234 0.26569536 0.50544626 -0.21135476 0.45931256
-0.42115486 0.30896956 0.7212072 1.2868952 -0.11890933 0.5047942 0.0065553486 1.1275743
-0.7063987 1.308602 -0.3403217 -0.59334 -0.20817487 0.61069065 0.091917485 0.41931713
-0.30556265 -0.13012494 0.44193378 1.089635 0.20405643 0.38167617 0.2206152 1.432859
1.4595448 0.31178236 -0.3710105 -1.1752838 -0.11055244 0.50957286 0.17409457 -0.04110639
0.5777989 0.23124225 -0.9922327 0.12210839 -0.25560823 1.0289515 0.25138193 -0.8082294
00000000: 04a7 5e3f 59c1 dcbc b72d 70be 526c 6e3f
00000010: b426 a5bd 0605 583f e341 afbe 7e22 2cbf
00000020: 4005 a3bd 7643 263e 031e 98be b737 bdbe
00000030: e7e4 8b3e dfbd 83bd c0fb d1bc 175d 9abc
00000040: b410 8c3f f5bb 37bf 04e6 1b3f 33b3 0c3e
00000050: 3909 883e ed64 013f 626d 58be 042b eb3e
00000060: 9ca1 d7be 4231 9e3e 09a1 383f fbb8 a43f
00000070: bc86 f3bd 313a 013f 40ce d63b 5b54 903f
00000080: 8cd6 34bf 4580 a73f a53e aebe 21e5 17bf
00000090: cb2b 55be 3956 1c3f 3c3f bc3d bcb0 d63e
000000a0: b572 9cbe 793f 05be 2545 e23e 2979 8b3f
000000b0: 2bf4 503e 0f6b c33e f3e8 613e ec67 b73f
000000c0: 5dd2 ba3f f0a1 9f3e 17f5 bdbe b36f 96bf
000000d0: 5169 e2bd 5e73 023f d945 323e 2d5f 28bd
000000e0: a1ea 133f c5ca 6c3e f602 7ebf f713 fa3d
000000f0: 15df 82be afb4 833f 22b5 803e 1fe8 4ebf

l2.bias f4 [8]
-0.15418693 -0.23788887 0.12292905 -0.28334022 0.5924907 0.24305382 0.81370926 0.36495584
00000000: 2ee3 1dbe 2499 73be 3ac2 fb3d f811 91be
00000010: 78ad 173f 1ae3 783e 404f 503f 7edb ba3e

l3.weight f4 [6, 8]
0.27268997 -0.006399706 0.42845258 0.4359087 -0.8744223 0.4108213 -1.6936384 -1.4894264
-1.3378229 -0.27587003 -1.4987427 0.6129521 0.72220653 0.49483943 -1.5456163 -1.2688539
-1.9410071 -0.15256695 0.385275 -0.13840742 0.1644603 0.5036079 0.5728816 -0.6752649
0.4487475 0.20740032 -0.16111058 -1.4361875 -0.115697555 -1.0889539 0.5576251 0.568445
-0.052302185 -0.24508813 -1.7284795 -0.15751597 0.7029493 -0.22143465 -0.26590258 0.37324196
0.30303237 -0.37608922 0.33296058 -0.07614235 -1.3136494 0.04174431 -0.26596412 0.34328085
00000000: 059e 8b3e a0b4 d1bb 235e db3e 6d2f df3e
00000010: 24da 5fbf 2b57 d23e 25c9 d8bf 86a5 bebf
00000020: c83d abbf d63e 8dbe cdd6 bfbf 6eea 1c3f
00000030: 87e2 383f 985b fd3e c1d6 c5bf ce69 a2bf
00000040: ec72 f8bf 833a 1cbe c442 c53e adba 0dbe
00000050: 4868 283e 73ec 003f 5ea8 123f 29de 2cbf
00000060: 3bc2 e53e c060 543e 2cfa 24be fed4 b7bf
00000070: d7f2 ecbd d762 8bbf 85c0 0e3f 9d85 113f
00000080: d13a 56bd 62f8 7abe d13e ddbf de4b 21be
00000090: 7cf4 333f c4bf 62be 6224 88be 9219 bf3e
000000a0: 0f27 9b3e c48e c0be cf79 aa3e 85f0 9bbd
000000b0: aa25 a8bf 15fc 2a3d 732c 88be 82c2 af3e

l3.bias f4 [6]
-0.5629849 -0.082744114 0.35702917 0.20570251 -0.5210114 0.083233565
00000000: c71f 10bf bf75 a9bd 87cc b63e aea3 523e
00000010: 0161 05bf 5c76 aa3d
