data.pth (torch, 5169 bytes, 6 tensors)

l1.weight f4 [8, 37]
-0.18873318 0.25892952 -0.22202224 0.6198071 0.81937975 -0.08216477 0.09190516 0.544371
0.011564209 -0.2130342 -0.1296088 -0.3376547 -0.2745174 -0.18301801 0.7641937 -0.4547747
-0.44238028 -0.36365214 0.23571786 -0.13009185 0.65484184 -0.12834285 0.5608742 0.29866102
-0.16725597 -0.28801444 0.008187147 0.48787567 0.24633682 0.92373073 -0.22328205 -0.10273474
-0.22308928 -0.12963763 -0.13193373 0.30296296 0.43719304 -0.3467209 0.072213665 0.72132194
-0.2658111 0.18361573 -0.16589914 -0.10130711 0.55541426 0.0013570429 0.36179146 -0.01336615
-0.027011793 -0.281684 0.86291796 0.30061176 0.9405768 1.0192858 0.06869059 -0.20762655
0.3521231 0.22002289 -0.17050667 -0.23776954 0.39411724 -0.5118872 -0.48400986 -0.36750236
0.4510083 0.110367864 0.30657053 -0.17698345 0.77835554 -0.09879752 0.060986646 -0.25865027
-0.11656519 0.28154162 0.52308863 0.29185215 0.3283317 0.35910678 0.49453676 0.45592475
0.3632749 -0.5872946 0.16969325 -0.15552793 -0.39576054 -0.13996094 0.46568903 0.556905
-0.5504469 0.07770855 0.2703626 -0.17163658 0.10102299 -0.43767932 0.4126945 -0.18353495
0.17504936 -0.40135655 1.0788332 0.9775083 0.60548544 -0.44001022 0.4119458 0.80975485
0.47500506 0.25276908 -0.10832672 0.09034192 0.44077152 -0.088936344 0.25482836 0.38290918
0.10324268 -0.079375446 0.3009618 0.10783874 0.117080346 0.1370909 0.82222164 0.24332331
-0.33447927 -0.18772869 0.022747492 0.6008927 -0.24607283 0.6034232 -0.59105927 -0.55488056
-0.25958025 0.041370258 -0.2815423 -0.0061725965 0.14986855 0.5186752 0.3397386 -0.5820748
-0.3974258 0.5937775 0.39057013 0.25854087 -0.41361287 0.15552293 -0.23092167 -0.008175057
-0.036510482 0.18404198 0.0927688 0.27905133 0.016971173 -0.0930285 0.58141565 -0.1823135
0.40894818 -0.028888347 0.042031705 0.5138727 -0.3236374 -0.09440466 -0.18071245 -0.1066501
0.046027977 0.45075908 0.49155605 0.22397535 0.18152107 -0.06706113 -0.2072918 -0.1697032
0.47922784 -0.17457248 -0.016972365 0.4262745 -0.20593347 -0.3078909 0.29132876 0.3025391
0.012447834 0.6818656 0.06820713 0.41897565 -0.32862684 -0.10634324 0.045677893 -0.31582862
0.4131972 -0.024809452 0.4243684 -0.118858725 0.6431181 0.6749075 -0.15259394 0.25333196
-0.3821531 0.61457205 -0.30632988 -0.12611352 0.27042222 -0.16388099 0.018943856 -0.38189402
-0.29052258 -0.25289142 0.29165444 0.72696817 -0.37146577 0.6417261 -0.60414 0.5232871
-0.31743497 -0.30289268 -0.079923734 -0.1932266 -0.421258 0.41611466 0.80697453 -0.31165648
-0.08157248 0.2580395 0.67378813 0.0047559794 0.1567213 0.439834 0.70655715 0.16731782
0.20226498 0.27701497 -0.2610795 0.25074697 -0.050437633 -0.33935422 0.5723452 0.5104464
0.58834916 1.1181091 0.7305045 -0.16887873 -0.30462095 0.26620883 0.23428476 0.6069698
0.72994596 0.40660495 -0.3162491 0.34354362 0.059097603 0.122105435 -0.59905857 -0.4074352
0.5977197 -0.060294207 0.25613782 -0.5771787 0.3482682 0.15743779 0.78765535 0.47684065
00000000: 4543 41be 6992 843e cc59 63be aeab 1e3f
00000010: dfc2 513f 0146 a8bd c638 bc3d e65b 0b3f
00000020: cf77 3d3c a325 5abe 2bb8 04be 14e1 acbe
00000030: 8b8d 8cbe 1369 3bbe 33a2 433f 3bd8 e8be
00000040: ab7f e2be 9d30 babe 0660 713e cc36 05be
00000050: b7a3 273f 4f6c 03be 7495 0f3f 19ea 983e
00000060: 2645 2bbe a176 93be 6223 063c d7ca f93e
00000070: b83f 7c3e 9e79 6c3f 0da4 64be 9766 d2bd
00000080: 8471 64be babf 04be a319 07be f61d 9b3e
00000090: c4d7 df3e 6785 b1be c2e4 933d 8ea8 383f
000000a0: 6418 88be c305 3c3e 77e1 29be 1a7a cfbd
000000b0: a12f 0e3f cede b13a bb3c b93e b2fd 5abc
000000c0: d647 ddbc e338 90be 31e8 5c3f c9e9 993e
000000d0: a4c9 703f f577 823f a7ad 8c3d 0e9c 54be
000000e0: 7b49 b43e ae4d 613e 4d99 2ebe dc79 73be
000000f0: bcc9 c93e 0a0b 03bf 24d0 f7be 4529 bcbe
00000100: 8fea e63e 8c08 e23d d0f6 9c3e 263b 35be
00000110: 4f42 473f 5b56 cabd 22cd 793d cf6d 84be
00000120: bbb9 eebd 3926 903e 23e9 053f a56d 953e
00000130: 181b a83e d8dc b73e ec33 fd3e f86e e93e
00000140: 2bff b93e f058 16bf 11c4 2d3e b742 1fbe
00000150: 20a1 cabe ec51 0fbe cb6e ee3e 5391 0e3f
00000160: 17ea 0cbf a925 9f3d f76c 8a3e 80c1 2fbe
00000170: 24e5 ce3d 8117 e0be b24c d33e 96f0 3bbe
00000180: 2440 333e 9b7e cdbe 3517 8a3f fc3d 7a3f
00000190: 1801 1b3f 0549 e1be 8fea d23e 184c 4f3f
000001a0: dd33 f33e f36a 813e 66da ddbd 2f05 b93d
000001b0: ceac e13e 4224 b6bd dd78 823e ac0c c43e
000001c0: e670 d33d 988f a2bd aa17 9a3e 8fda dc3d
000001d0: d2c7 ef3d 8f61 0c3e 1e7d 523f bf29 793e
000001e0: de40 abbe f33b 40be f358 ba3c 1bd4 193f
000001f0: 84fa 7bbe f179 1a3f a94f 17bf a70c 0ebf
00000200: b4e7 84be dc73 293d 5026 90be 7e43 cabb
00000210: 2477 193e e6c7 043f 38f2 ad3e db02 15bf
00000220: 657b cbbe cd01 183f cff8 c73e 785f 843e
00000230: 11c5 d3be 6741 1f3e bb76 6cbe adf0 05bc
00000240: 048c 15bd 8075 3c3e 92fd bd3d d1df 8e3e
00000250: 2107 8b3c ba85 bebd a8d7 143f 64b0 3abe
00000260: a861 d13e 41a7 ecbc 7029 2c3d 298d 033f
00000270: cdb3 a5be 3b57 c1bd af0c 39be 5e6b dabd
00000280: d587 3c3d e5c9 e63e 3cad fb3e cb59 653e
00000290: a9e0 393e 5957 89bd 4d44 54be adc6 2dbe
000002a0: 5a5d f53e 21c3 32be a109 8bbc a740 da3e
000002b0: 39e0 52be e0a3 9dbe 0b29 953e 68e6 9a3e
000002c0: 00f2 4b3c be8e 2e3f 2eb0 8b3d fa83 d63e
000002d0: c741 a8be 7cca d9bd be18 3b3d 4ab4 a1be
000002e0: 958e d33e 313d cbbc d146 d93e 346c f3bd
000002f0: 63a3 243f bdc6 2c3f 9641 1cbe bab4 813e
00000300: 92a9 c3be 9854 1d3f 45d7 9cbe e723 01be
00000310: c874 8a3e 6bd0 27be 2530 9b3c 9d87 c3be
00000320: 60bf 94be fc7a 81be bb53 953e 961a 3a3f
00000330: c330 bebe 2948 243f eba8 1abf 25f6 053f
00000340: d686 a2be c014 9bbe 0eaf a3bd 32dd 45be
00000350: 21af d7be fb0c d53e e295 4e3f 7091 9fbe
00000360: 790f a7bd c11d 843e 617d 2c3f 0cd8 9b3b
00000370: 8c7b 203e ec31 e13e eee0 343f 5d55 2b3e
00000380: 8d1e 4f3e e8d4 8d3e 36ac 85be e861 803e
00000390: b197 4ebd d6bf adbe 3785 123f 9eac 023f
000003a0: 0d9e 163f 331e 8f3f 5802 3b3f 8cee 2cbe
000003b0: 47f7 9bbe 864c 883e 58e8 6f3e 5f62 1b3f
000003c0: bddd 3a3f 862e d03e 67eb a1be f3e4 af3e
000003d0: 5410 723d 6a12 fa3d e75b 19bf 599b d0be
000003e0: 2904 193f 0ff7 76bd 7f24 833e fcc1 13bf
000003f0: 3650 b23e 5f37 213e c8a3 493f 7524 f43e

l1.bias f4 [8]
0.45477673 0.9959211 0.58733654 0.5909682 0.70408535 0.38188496 0.57722676 0.91727275
00000000: 7fd8 e83e aff4 7e3f b05b 163f b149 173f
00000010: f03e 343f 6d86 c33e 22c5 133f 63d2 6a3f

l2.weight f4 [8, 8]
0.20457792 1.4243845 0.49716434 -0.18105638 1.296779 0.1080353 -0.9990647 0.32412392
-0.32537216 -0.33963427 -0.2621295 0.067919135 -0.18092605 0.3160914 -0.13361768 -0.3392964
-0.6578801 0.9178547 -0.6591001 0.8304734 -0.15453365 -0.11493332 1.3142805 1.2057004
0.42295945 0.6270342 -1.0860827 0.9327233 0.6654526 -1.2510566 0.099729754 1.1535121
-0.71969336 0.72380304 0.47371417 -1.1826361 -0.92590433 -0.97873324 -0.020778852 0.90287966
1.432225 0.18290949 0.10723769 1.4616714 0.49469647 0.7450578 -0.42910075 -0.41898584
0.8060269 0.31707585 -0.44279596 0.68046594 0.54141116 0.12358295 -1.1961968 0.019197263
-0.641588 -0.8841359 0.9510203 1.21971 0.9175267 -0.8772569 0.40779817 -0.20524763
00000000: e07c 513e 3b52 b63f 538c fe3e d866 39be
00000010: dbfc a53f 9d41 dd3d b4c2 7fbf 92f3 a53e
00000020: 2e97 a6be 8be4 adbe d635 86be 3019 8b3d
00000030: ae44 39be bbd6 a13e 13d3 08be 42b8 adbe
00000040: d56a 28bf 87f8 6a3f c9ba 28bf e899 543f
00000050: 123e 1ebe 2962 ebbd 583a a83f 6454 9a3f
00000060: 248e d83e 5085 203f c204 8bbf f4c6 6e3f
00000070: 1a5b 2a3f 9f22 a0bf 1d3f cc3d 49a6 933f
00000080: d33d 38bf 284b 393f aa8a f23e 9f60 97bf
00000090: 1108 6dbf 438e 7abf 6938 aabc 1f23 673f
000000a0: 2653 b73f a04c 3b3e 6f9f db3d 0c18 bb3f
000000b0: db48 fd3e 1cbc 3e3f 18b3 dbbe 5085 d6be
000000c0: c757 4e3f c457 a23e 27b6 e2be 0433 2e3f
000000d0: ec99 0a3f 0f19 fd3d fa1c 99bf 9443 9d3c
000000e0: 1c3f 24bf bb56 62bf 1176 733f 751f 9c3f
000000f0: 08e3 6a3f e893 60bf ecca d03e 6f2c 52be

l2.bias f4 [8]
0.7234175 -0.29029375 0.83514374 0.34828168 0.93278164 0.03676489 0.14788954 0.26175192
00000000: e431 393f 62a1 94be fbcb 553f fa51 b23e
00000010: c7ca 6e3f c896 163d 5b70 173e 5904 863e

l3.weight f4 [8, 8]
-0.7890167 -0.21183625 -0.52498454 -0.6349534 -0.68129474 0.8000919 -0.9498967 -0.6396146
-1.403408 0.063513786 0.29536328 0.6113457 0.45417675 -1.2122084 -0.40494168 -1.0692227
-0.6889477 -0.24412149 0.9873554 -0.90851665 -1.0707656 -1.0917555 -0.49742177 -1.1191664
0.07149066 0.0014641285 -0.23350567 0.65160644 -0.89033955 -0.29268757 0.57852197 -0.5799749
0.76518804 0.2410405 0.14629515 0.06520447 0.12677178 -1.4467728 -1.0266392 -1.1594359
0.5455606 -0.20799401 -0.9145132 -1.0378759 0.94893825 -1.3958457 -0.86442596 0.5313813
-0.85973984 -0.2592494 -0.037876744 -0.5503149 -0.69464254 -0.7713237 -0.6491076 0.92320156
0.7704542 0.26084223 -1.3559641 -0.60834754 -0.67844933 0.1093179 0.6381986 -0.8516987
00000000: 00fd 49bf 9aeb 58be 6365 06bf 4e8c 22bf
00000010: 5569 2ebf d3d2 4c3f 6e2c 73bf c8bd 23bf
00000020: e0a2 b3bf 8413 823d db39 973e 2781 1c3f
00000030: db89 e83e a529 9bbf 8454 cfbe 4adc 88bf
00000040: e05e 30bf fcfa 79be 53c3 7c3f 8c94 68bf
00000050: d90e 89bf a5be 8bbf 11ae febe d840 8fbf
00000060: b269 923d 00e8 bf3a 1c1c 6fbe aecf 263f
00000070: 4bed 63bf 25db 95be 041a 143f 3c79 14bf
00000080: 5de3 433f 52d3 763e 65ce 153e ec89 853d
00000090: 76d0 013e da2f b9bf ea68 83bf 6568 94bf
000000a0: dca9 0b3f 62fc 54be 891d 6abf 1ed9 84bf
000000b0: 9eed 723f 12ab b2bf 054b 5dbf 9b08 083f
000000c0: e917 5cbf 56bc 84be a524 1bbd 70e1 0cbf
000000d0: 18d4 31bf 7875 45bf ea2b 26bf f056 6c3f
000000e0: 7d3c 453f 1d8d 853e 3b90 adbf aabc 1bbf
000000f0: dbae 2dbf 10e2 df3d fc60 233f ed08 5abf

l3.bias f4 [8]
0.3166922 -0.11875361 0.3829445 -0.37344563 -0.017000157 -0.028658027 0.020925842 0.116153285
00000000: 7b25 a23e 1835 f3bd 4d11 c43e 4434 bfbe
00000010: ea43 8bbc 3dc4 eabc ac6c ab3c c6e1 ed3d
