data.pth (torch, 6257 bytes, 6 tensors)

l1.weight f4 [8, 50]
0	0x3f32920b	0.69754094
1	0xbe096bf6	-0.1342009
2	0xbcce10ac	-0.025154434
3	0x3c8060d0	0.015671164
4	0xbe04c1e3	-0.12964587
5	0xbd6995ec	-0.057027742
6	0xbd77d1de	-0.06050288
7	0xbd2a5010	-0.04158026
8	0x3ca24660	0.019808948
9	0x3e08f035	0.13372882
10	0xbe01737b	-0.12641709
11	0xbd76f858	-0.060295433
12	0x3d54af9c	0.051925287
13	0xbb8eef60	-0.004362032
14	0xbd8f7f27	-0.07006674
15	0xbe032d7c	-0.1281032
16	0xbcc163bc	-0.023607127
17	0x3d8cdcaa	0.06878026
18	0xbdf704c2	-0.12061454
19	0x3e02ed1d	0.12785764
20	0x3db7056e	0.089365825
21	0x3d2a1b24	0.04152979
22	0xbd5e28fe	-0.054238312
23	0x3ed3da90	0.41377687
24	0x3f38b364	0.7214873
25	0x3f3ca8fc	0.7369535
26	0xbeed9212	-0.46400505
27	0x3dbaf23c	0.09128234
28	0x3de52aba	0.1118979
29	0xbda735af	-0.08164536
30	0xbea176ad	-0.31535855
31	0x3ddcd014	0.10781875
32	0x3e9a9d7e	0.30198282
33	0x3da9a804	0.082839996
34	0xbed79202	-0.42103583
35	0x3f2e9409	0.68194634
36	0x3f63d225	0.8899253
37	0xbedc96de	-0.43083853
38	0xbe9cbb71	-0.30611756
39	0x3cdc47b0	0.026889652
40	0x3d3f945c	0.046772346
41	0x3de1b7da	0.11021395
42	0x3f2829b9	0.65688664
43	0x3e6ea5a2	0.23305371
44	0xbf19211e	-0.5981616
45	0x3f48f28f	0.78495115
46	0xbed14d0a	-0.4087909
47	0x3f013873	0.5047676
48	0x3f0cd8e2	0.55018437
49	0x3ec2d4c6	0.38052958
50	0xbd807e94	-0.06274143
51	0xbd0e202a	-0.034698643
52	0xbd86666e	-0.06562506
53	0x3aa2eb00	0.0012429655
54	0x3d9ffe7e	0.078122124
55	0x3df26762	0.11836125
56	0xb9a17e00	-0.0003080219
57	0x3daa3698	0.08311194
58	0x3dae5944	0.0851312
59	0x3df7b9de	0.12095998
60	0xbd9ed658	-0.077557266
61	0xbdccb314	-0.09995094
62	0x3cdaa900	0.026691914
63	0xbdb65453	-0.08902802
64	0xbdc9d4cc	-0.09855041
65	0x3e03e779	0.12881269
66	0xbc5d50f0	-0.013508067
67	0x3c209d40	0.009803116
68	0xbc8f9c48	-0.017530575
69	0xbdfb7c61	-0.12279583
70	0xbcece50c	-0.028917812
71	0xbd5d2d1a	-0.05399809
72	0xbe08f862	-0.13376
73	0x3dda46f2	0.10658063
74	0x3e0b818b	0.13623635
75	0xbd5695e0	-0.052389026
76	0xbb5a3480	-0.0033295453
77	0xbd04eafc	-0.03245066
78	0xbd799386	-0.060931705
79	0x3d1a4170	0.037660062
80	0x3c68e330	0.014214322
81	0xbcf70724	-0.030154772
82	0x3e043d5f	0.12914036
83	0x3e0a9a35	0.13535388
84	0x3b8a0680	0.0042122006
85	0x3df33864	0.1187599
86	0xbc981788	-0.018565908
87	0x3d0dab44	0.03458716
88	0xbe0cc574	-0.13747197
89	0x3d6221ec	0.05520813
90	0x3db28efe	0.0871868
91	0xbb8f57a0	-0.0043744594
92	0xbda9eec0	-0.08297491
93	0x3d71cc01	0.059032444
94	0x3d816d74	0.06319705
95	0x3d41b7ec	0.047294542
96	0xbcf54fdc	-0.029945306
97	0x3d2b13dc	0.041766986
98	0xbdf2aa64	-0.11848906
99	0xbde25000	-0.11050415
100	0x3f0705b4	0.5274308
101	0x3d93a37c	0.072089165
102	0xbde84cf5	-0.113428034
103	0xbd9b54b3	-0.075845145
104	0x3db8bf58	0.09020871
105	0x3debac26	0.11507444
106	0xbc28f2a0	-0.010311753
107	0x3df79182	0.120883
108	0xbdf7867a	-0.12086196
109	0x3e0b9db9	0.13634385
110	0x3e10900b	0.14117448
111	0xbd2d1bfe	-0.042263024
112	0x3d9827ac	0.07429442
113	0x3d8cdbe4	0.06877878
114	0xbd55d2f2	-0.052203126
115	0xbdaa6358	-0.083197296
116	0x3d92fc7e	0.07177065
117	0xbd9d8637	-0.07691615
118	0x3d9bb186	0.07602219
119	0x3e0cd085	0.13751419
120	0xbd6dc1d0	-0.058046162
121	0xbdd9e412	-0.10639204
122	0xbde0e857	-0.10981815
123	0xbe822976	-0.25422257
124	0xbe5b0d98	-0.21391904
125	0xbf231ea8	-0.6371865
126	0x3ee14c74	0.44003642
127	0x3dbe46ea	0.092908695
128	0x3de7d80e	0.11320506
129	0xbdb54e62	-0.08852841
130	0x3ec55416	0.38540715
131	0xbcc65850	-0.024212033
132	0x3f21485f	0.63001055
133	0x3e2b1faa	0.16711298
134	0x3efdfd97	0.49607536
135	0xbf05c55c	-0.5225427
136	0xbeb59737	-0.3546693
137	0x3f5600ee	0.8359517
138	0x3e925a8c	0.28584707
139	0xbdab90c6	-0.08377223
140	0x3c92cf70	0.01792118
141	0x3d4fff60	0.050780654
142	0xbe70f386	-0.23530397
143	0x3f0056e6	0.50132596
144	0x3e9ba897	0.3040206
145	0x3e9a7c8c	0.30173147
146	0x3ed14db2	0.4087959
147	0xbe6f5275	-0.23371299
148	0x3f2d1488	0.67609453
149	0xbf021c3e	-0.50824344
150	0x3ccacdf3	0.024756407
151	0x3e0d3bb5	0.13792308
152	0xbd01f3aa	-0.031726517
153	0x3c0392c0	0.008030593
154	0x3bdee700	0.0068024397
155	0x3d75f350	0.060046494
156	0x3d9535c2	0.07285644
157	0x3de8ecaa	0.11373265
158	0xbe10885c	-0.14114517
159	0x3bd1a520	0.0063978583
160	0xbd516fdc	-0.051132068
161	0x3def328e	0.116795644
162	0x3c9d78a8	0.019222572
163	0xbdee4540	-0.11634302
164	0x3d16168c	0.036642596
165	0x3db8ae8e	0.09017669
166	0x3e0b0329	0.13575424
167	0xbc9ac3cc	-0.018892191
168	0x3dc53ab2	0.09630336
169	0xbddf0c31	-0.10890997
170	0xbe01bebb	-0.12670414
171	0xbd92d1b7	-0.07168906
172	0x3dfba5b6	0.12287466
173	0x3f5ce0cd	0.8628052
174	0x3dab2d24	0.08358219
175	0xbf0c8596	-0.54891336
176	0xbe87af59	-0.26500967
177	0x3db83720	0.08994889
178	0xbd8b5a90	-0.06804383
179	0x3cfdd040	0.03098309
180	0xbe039486	-0.12849626
181	0x3d929e04	0.07159045
182	0x3f35351a	0.7078415
183	0xbe98d635	-0.29850927
184	0xbe6b9d76	-0.23009285
185	0x3ee23572	0.441814
186	0xbe98c6a0	-0.2983904
187	0x3f48e7d7	0.7847876
188	0xbe3472a4	-0.17621857
189	0x3d868fc4	0.0657039
190	0xbe0f77ce	-0.14010546
191	0x3dfc5d9e	0.123225436
192	0xbdb3b233	-0.08774223
193	0x3d719d71	0.05898804
194	0x3ed6ec8c	0.41977346
195	0xbf148d1e	-0.5802783
196	0xbd964ec8	-0.07339245
197	0xbe782c7a	-0.24235716
198	0xbef65782	-0.48113638
199	0x3f42fa97	0.7616362
200	0x3f4b97e7	0.7952866
201	0xbe03f7bf	-0.12887476
202	0xbd7a6a00	-0.061136246
203	0xbd5cbb34	-0.05388947
204	0xbc19b050	-0.009380415
205	0x3d92c7cc	0.071670145
206	0x3de56e62	0.112026945
207	0x3dd0cd88	0.10195452
208	0xbe0a5171	-0.1350763
209	0xbaa68080	-0.0012703091
210	0xbdddb41d	-0.108253695
211	0xbd5e94e0	-0.054341197
212	0xbdfd406a	-0.12365802
213	0xbb5c1000	-0.0033578873
214	0x3bab7960	0.005232975
215	0x3da4613a	0.08026357
216	0xbdb42958	-0.08796948
217	0x3d561e94	0.052275255
218	0x3db96cc6	0.0905395
219	0x3b24d400	0.0025150776
220	0x3b9a6ce0	0.004712686
221	0x3d5b99b8	0.053613394
222	0xbd5d5afe	-0.054041855
223	0xbef08b9f	-0.46981522
224	0x3ebfb245	0.37440696
225	0xbea534a5	-0.32266727
226	0x3f1b019b	0.60549325
227	0x3cf35830	0.029705137
228	0x3aee7280	0.0018192083
229	0x3d9286cc	0.07154617
230	0x3ebee8e4	0.37287056
231	0x3dc047f8	0.09388727
232	0x3f4f5c85	0.8100055
233	0xbe3a074d	-0.18166848
234	0x3eed78b3	0.4638115
235	0xbf022c3e	-0.5084876
236	0x3f1cbcfe	0.6122588
237	0x3f721fab	0.9457957
238	0x3e91233d	0.28347197
239	0x3c5b3a00	0.0133805275
240	0x3d833266	0.06406097
241	0xbd0f6d1a	-0.035016157
242	0x3ebcc9c5	0.36872688
243	0x3ea1ea1c	0.31623924
244	0x3e6811ae	0.22662994
245	0x3f1e7c19	0.6190811
246	0x3e007d01	0.12547685
247	0xbedb51ae	-0.42835754
248	0x3ec76e68	0.3895142
249	0xbf022b7e	-0.50847614
250	0xbe32160a	-0.1739122
251	0xbdc56249	-0.09637887
252	0xbb1bb0c0	-0.0023756474
253	0xbd820b87	-0.06349855
254	0xbd868863	-0.065689825
255	0x3c410340	0.01178056

l1.bias f4 [8]
0	0x3eed8e6a	0.46397716
1	0xbe10e519	-0.14149894
2	0x3f05c4be	0.5225333
3	0x3f529418	0.82257223
4	0x3f022d1e	0.50850093
5	0x3f334c59	0.7003837
6	0xbda62499	-0.08112449
7	0x3f633415	0.88751346

l2.weight f4 [8, 8]
0	0xbf3b2e1f	-0.7311725
1	0x3d845c72	0.06462945
2	0x3f833127	1.0249375
3	0xbf5c2ab7	-0.8600268
4	0x3f5c7c56	0.8612722
5	0x3f8db99a	1.1072266
6	0xbdbd1b30	-0.09233701
7	0xbbbf6e36	-0.0058419956
8	0x3eb573fc	0.35440052
9	0x3deb2dfc	0.1148338
10	0x3eec95c0	0.46208
11	0xbf879a10	-1.0593891
12	0x3f03c904	0.514786
13	0x3f864f4b	1.0492948
14	0xbe903588	-0.2816584
15	0xbee31b3d	-0.4435672
16	0xbf5c72a3	-0.8611242
17	0xbd2b0440	-0.0417521
18	0x3ebd8c9f	0.37021348
19	0x3f8289cb	1.0198301
20	0xbebfc012	-0.37451226
21	0x3f7b1762	0.98082554
22	0xbd2875b0	-0.04112786
23	0x3f236543	0.6382639
24	0xbf54ebd5	-0.8317235
25	0x3e1f4b9f	0.15556191
26	0x3f96c2ac	1.1778159
27	0x3f907845	1.1286703
28	0x3f8648dc	1.0490985
29	0xbf24d00f	-0.6437997
30	0xbea922cd	-0.33034363
31	0x3f8076fb	1.003631
32	0x3f1a0b60	0.60173607
33	0xbdd72c80	-0.105065346
34	0xbf194806	-0.59875524
35	0x3f4fc539	0.8116031
36	0xbf7182b0	-0.9434004
37	0x3f8a636c	1.0811591
38	0x3db42800	0.08796692
39	0x3f7a738c	0.9783256
40	0x3f6f4169	0.9345918
41	0x3e86d8a2	0.26337153
42	0x3f3f8c95	0.74823886
43	0xbd3a573a	-0.045493342
44	0x3f6d3c4d	0.92670137
45	0xbf6ebb47	-0.9325451
46	0x3e654bae	0.22392151
47	0xbf853e46	-1.0409629
48	0xbe8a07b4	-0.26959002
49	0x3df46328	0.11932975
50	0xbe004b25	-0.12528665
51	0x3d7ad1d0	0.06123525
52	0xbeaabd8c	-0.33347738
53	0xbe83a582	-0.2571221
54	0xbe3769ae	-0.17911407
55	0x3e3e5822	0.18588307
56	0x3dbf8970	0.09352386
57	0xbe6b3bcf	-0.22972034
58	0x3f1c764e	0.6111802
59	0xbf1ac30a	-0.60453856
60	0xbb0944cc	-0.0020945547
61	0xbea3e634	-0.3201157
62	0x3def6044	0.11688283
63	0xbf1740ed	-0.59083444

l2.bias f4 [8]
0	0x3eb4565f	0.35222146
1	0xbe12321e	-0.1427693
2	0x3de371be	0.11105679
3	0x3f3a3cda	0.727491
4	0x3f5b8917	0.8575606
5	0x3f37c897	0.7179045
6	0xbe049180	-0.12946129
7	0xbe607045	-0.21917827

l3.weight f4 [9, 8]
0	0xbf7d8b11	-0.99040323
1	0x3f33446b	0.7002627
2	0xbf761d60	-0.9613857
3	0xbf213077	-0.62964576
4	0xbf1ff250	-0.62479115
5	0x3f7abba5	0.9794257
6	0xbe46a7b4	-0.19399911
7	0xbf1a905f	-0.6037654
8	0x3f070987	0.5274891
9	0x3f302d95	0.6881955
10	0xbf646f10	-0.8923197
11	0x3d9f66e4	0.07783297
12	0xbf89112f	-1.0708369
13	0x3ec5062b	0.38481268
14	0xbe780b26	-0.24223003
15	0x3f500351	0.8125506
16	0x3f2a4b38	0.66521025
17	0x3f2abddd	0.6669596
18	0xbf8c2dc8	-1.0951471
19	0xbf8ad2f4	-1.0845628
20	0x3f6b1219	0.9182449
21	0xbeec3036	-0.46130532
22	0x3c1790e0	0.0092508495
23	0xbec0a151	-0.37623075
24	0xbf51127b	-0.81668824
25	0xbf75d638	-0.96029997
26	0x3ed905f9	0.4238737
27	0x3f8789bd	1.0588909
28	0x3e46b4cc	0.19404906
29	0xbf6bb6c4	-0.92075753
30	0x3e3f68ea	0.18692365
31	0xbecfec9a	-0.406102
32	0x3f8133fb	1.0093988
33	0xbf64840d	-0.89263994
34	0x3f0a291e	0.5396899
35	0x3ef52b11	0.4788442
36	0x3d4da74b	0.05020837
37	0xbf73c15d	-0.95216924
38	0x3e9c4b65	0.3052627
39	0xbf82299e	-1.016895
40	0xbeb8ad3b	-0.36069664
41	0xbfa5c68c	-1.2951217
42	0x3d03d73f	0.032187697
43	0x3ea8fd5a	0.33005792
44	0x3ecf88c5	0.40534034
45	0x3f045a96	0.51700723
46	0x3d94ef50	0.07272208
47	0xbf11aff8	-0.5690913
48	0xbf3df065	-0.7419494
49	0xbf477e35	-0.7792695
50	0xbf4219bb	-0.7582051
51	0x3f8bc9b7	1.0920933
52	0xbf9a3add	-1.2049214
53	0x3f23f8b5	0.6405137
54	0xbd4d9418	-0.05019006
55	0xbf61e5f2	-0.88241494
56	0xbf7f2b8e	-0.99675834
57	0xbef7220f	-0.48268172
58	0x3f9dc7d4	1.2326608
59	0xbf219797	-0.6312193
60	0x3f95c9b8	1.1702185
61	0xbf6d72fc	-0.9275358
62	0xbe9e58b9	-0.30927065
63	0xbe86fba8	-0.26363873
64	0x3f39bd91	0.7255488
65	0x3f416e76	0.75559175
66	0x3f42b522	0.76057637
67	0xbebe9729	-0.372247
68	0xbf75f916	-0.960832
69	0xbefdfeab	-0.4960836
70	0xbe3e91a9	-0.18610252
71	0xbf231ebb	-0.63718766

l3.bias f4 [9]
0	0x3ecc21ab	0.39869437
1	0xbf80cd21	-1.00626
2	0x3ecb65bd	0.39726058
3	0x3cd33a16	0.025784533
4	0xbcd961c5	-0.026535878
5	0x3f02afb1	0.51049334
6	0x3ea23c2e	0.31686538
7	0x3eb141f2	0.34620625
8	0xbf148716	-0.58018625
